…
2025-02-06 16:45:17 - Epoch 64/100 | Train Loss: 0.9049, Train Accuracy: 0.4035 | Test Loss: 0.7559, Test Accuracy: 0.7114
2025-02-06 16:45:41 - Epoch 65/100 | Train Loss: 0.9047, Train Accuracy: 0.4025 | Test Loss: 0.7563, Test Accuracy: 0.7104
2025-02-06 16:46:03 - Epoch 66/100 | Train Loss: 0.9040, Train Accuracy: 0.4032 | Test Loss: 0.7564, Test Accuracy: 0.7156
2025-02-06 16:46:28 - Epoch 67/100 | Train Loss: 0.9056, Train Accuracy: 0.4015 | Test Loss: 0.7605, Test Accuracy: 0.7150
<bound method Module.state_dict of NormalizedCrossEntropyLoss_REVISED(
  (reduction): SimpleCNN(
    (conv_layers): Sequential(
      (0): Conv2d(3, 32, kernel_size=(3, 3), stride=(1, 1), padding=(1, 1))
      (1): BatchNorm2d(32, eps=1e-05, momentum=0.1, affine=True, track_running_stats=True)
      (2): ReLU()
      (3): Conv2d(32, 32, kernel_size=(3, 3), stride=(1, 1), padding=(1, 1))
      (4): BatchNorm2d(32, eps=1e-05, momentum=0.1, affine=True, track_running_stats=True)
      (5): ReLU()
      (6): MaxPool2d(kernel_size=2, stride=2, padding=0, dilation=1, ceil_mode=False)
      (7): Conv2d(32, 64, kernel_size=(3, 3), stride=(1, 1), padding=(1, 1))
      (8): BatchNorm2d(64, eps=1e-05, momentum=0.1, affine=True, track_running_stats=True)
      (9): ReLU()
      (10): Conv2d(64, 64, kernel_size=(3, 3), stride=(1, 1), padding=(1, 1))
      (11): BatchNorm2d(64, eps=1e-05, momentum=0.1, affine=True, track_running_stats=True)
      (12): ReLU()
      (13): MaxPool2d(kernel_size=2, stride=2, padding=0, dilation=1, ceil_mode=False)
      (14): Conv2d(64, 128, kernel_size=(3, 3), stride=(1, 1), padding=(1, 1))
      (15): BatchNorm2d(128, eps=1e-05, momentum=0.1, affine=True, track_running_stats=True)
      (16): ReLU()
      (17): Conv2d(128, 128, kernel_size=(3, 3), stride=(1, 1), padding=(1, 1))
      (18): BatchNorm2d(128, eps=1e-05, momentum=0.1, affine=True, track_running_stats=True)
      (19): ReLU()
      (20): MaxPool2d(kernel_size=2, stride=2, padding=0, dilation=1, ceil_mode=False)
    )
    (fc_layers): Sequential(
      (0): Flatten(start_dim=1, end_dim=-1)
      (1): Linear(in_features=2048, out_features=256, bias=True)
      (2): ReLU()
      (3): Dropout(p=0.5, inplace=False)
      (4): Linear(in_features=256, out_features=10, bias=True)
    )
  )
  (cross_entropy): CrossEntropyLoss()
)>

<bound method Optimizer.state_dict of SGD (
Parameter Group 0
    dampening: 0
    differentiable: False
    foreach: None
    fused: None
    initial_lr: 0.01
    lr: 0.00015625
    maximize: False
    momentum: 0.9
    nesterov: False
    weight_decay: 0.001
)>

{'step_size': 10, 'gamma': 0.5, 'base_lrs': [0.01], 'last_epoch': 67, 'verbose': False, '_step_count': 68, '_get_lr_called_within_step': False, '_last_lr': [0.00015625]}
…
