13:27:12 - <bound method APLLoss.state_dict of APLLoss(
  (active_loss): NormalizedCrossEntropyLoss_REVISED(
    (reduction): CNN_V4(
      (conv_layers): Sequential(
        (0): Conv2d(3, 32, kernel_size=(3, 3), stride=(1, 1), padding=(1, 1))
        (1): GroupNorm(8, 32, eps=1e-05, affine=True)
        (2): ReLU()
        (3): Conv2d(32, 32, kernel_size=(3, 3), stride=(1, 1), padding=(1, 1))
        (4): GroupNorm(8, 32, eps=1e-05, affine=True)
        (5): ReLU()
        (6): MaxPool2d(kernel_size=2, stride=2, padding=0, dilation=1, ceil_mode=False)
        (7): Conv2d(32, 64, kernel_size=(3, 3), stride=(1, 1), padding=(1, 1))
        (8): GroupNorm(8, 64, eps=1e-05, affine=True)
        (9): ReLU()
        (10): Conv2d(64, 64, kernel_size=(3, 3), stride=(1, 1), padding=(1, 1))
        (11): GroupNorm(8, 64, eps=1e-05, affine=True)
        (12): ReLU()
        (13): MaxPool2d(kernel_size=2, stride=2, padding=0, dilation=1, ceil_mode=False)
        (14): Conv2d(64, 128, kernel_size=(3, 3), stride=(1, 1), padding=(1, 1))
        (15): GroupNorm(8, 128, eps=1e-05, affine=True)
        (16): ReLU()
        (17): Conv2d(128, 128, kernel_size=(3, 3), stride=(1, 1), padding=(1, 1))
        (18): GroupNorm(8, 128, eps=1e-05, affine=True)
        (19): ReLU()
        (20): MaxPool2d(kernel_size=2, stride=2, padding=0, dilation=1, ceil_mode=False)
      )
      (fc_layers): Sequential(
        (0): Flatten(start_dim=1, end_dim=-1)
        (1): Linear(in_features=2048, out_features=256, bias=True)
        (2): ReLU()
        (3): Dropout(p=0.5, inplace=False)
        (4): Linear(in_features=256, out_features=10, bias=True)
      )
    )
    (cross_entropy): CrossEntropyLoss()
  )
  (passive_loss): ReversedCrossEntropyLoss()
)>
13:27:12 - 

13:27:12 - <bound method Optimizer.state_dict of SGD (
Parameter Group 0
    dampening: 0
    differentiable: False
    foreach: None
    fused: None
    initial_lr: 0.01
    lr: 0.01
    maximize: False
    momentum: 0.9
    nesterov: False
…
14:14:07 - Epoch 89/100 | Train Loss: 1.0258, Train Accuracy: 0.4720 | Test Loss: 0.7948, Test Accuracy: 0.7352
14:14:39 - Epoch 90/100 | Train Loss: 1.0259, Train Accuracy: 0.4713 | Test Loss: 0.7839, Test Accuracy: 0.7583
14:15:09 - Epoch 91/100 | Train Loss: 1.0262, Train Accuracy: 0.4718 | Test Loss: 0.7837, Test Accuracy: 0.7552
14:15:09 - Terminate Train Loop (Manual)
14:15:09 - Train Time : 2861.966112s
Finished Training...
14:15:09 - Arch & metrics Saved to APL\Models\cnn_9.pth...
10:52:10 - <bound method APLLoss.state_dict of APLLoss(
  (active_loss): NormalizedCrossEntropyLoss(
    (reduction): CNN_V1(
      (block1): Sequential(
        (0): Conv2d(3, 64, kernel_size=(3, 3), stride=(1, 1), padding=(1, 1))
        (1): ReLU()
        (2): Conv2d(64, 64, kernel_size=(3, 3), stride=(1, 1), padding=(1, 1))
        (3): ReLU()
        (4): MaxPool2d(kernel_size=2, stride=2, padding=0, dilation=1, ceil_mode=False)
      )
      (block2): Sequential(
        (0): Conv2d(64, 128, kernel_size=(3, 3), stride=(1, 1), padding=(1, 1))
        (1): ReLU()
        (2): Conv2d(128, 128, kernel_size=(3, 3), stride=(1, 1), padding=(1, 1))
        (3): ReLU()
        (4): MaxPool2d(kernel_size=2, stride=2, padding=0, dilation=1, ceil_mode=False)
      )
      (block3): Sequential(
        (0): Conv2d(128, 256, kernel_size=(3, 3), stride=(1, 1), padding=(1, 1))
        (1): ReLU()
        (2): Conv2d(256, 256, kernel_size=(3, 3), stride=(1, 1), padding=(1, 1))
        (3): ReLU()
        (4): MaxPool2d(kernel_size=2, stride=2, padding=0, dilation=1, ceil_mode=False)
      )
      (classifier): Sequential(
        (0): Flatten(start_dim=1, end_dim=-1)
        (1): Linear(in_features=4096, out_features=256, bias=True)
        (2): ReLU()
        (3): Dropout(p=0.5, inplace=False)
        (4): Linear(in_features=256, out_features=10, bias=True)
      )
    )
    (cross_entropy): CrossEntropyLoss()
  )
  (passive_loss): ReversedCrossEntropyLoss()
)>
10:52:10 - 

10:52:10 - <bound method Optimizer.state_dict of SGD (
Parameter Group 0
    dampening: 0
    differentiable: False
    foreach: None
    fused: None
    initial_lr: 0.01
    lr: 0.01
    maximize: False
    momentum: 0.9
    nesterov: False
…
